predictor/sample_models/1/model.pth (torch, 126107 bytes, 5 tensors)

embedding.weight f4 [52, 64]
000000 80 ce 5f bd fc cd 22 be b0 97 ce be 4c b4 3c be
       -0.054640293 -0.1589889 -0.40350103 -0.18428153
000010 50 ea f4 3d 50 1e f5 bd 88 ee 03 be 80 8e d2 be
       0.11958754 -0.11968672 -0.12883961 -0.41124344
000020 50 66 e2 be 28 06 b5 bd 54 7e 67 be 36 65 c3 3e
       -0.44218683 -0.08839065 -0.22606784 0.38163155
000030 d8 d5 6b 3e f0 92 86 3d e0 c3 df 3e 6e 70 a1 be
       0.23030794 0.06570995 0.43704128 -0.3153109
000040 0e 80 ed 3e 54 3e 14 be 78 70 1c 3e 1e d4 9d be
       0.4638676 -0.14476901 0.15277278 -0.30825895
000050 d8 2b 6d be 40 45 b7 be 5a 35 b8 3e dc ca a9 3e
       -0.23161256 -0.3579502 0.35978204 0.33162582
000060 a0 71 0b bd 64 6b 52 be 70 58 54 bd 8c f2 57 3e
       -0.034043908 -0.20548779 -0.051842153 0.21088618
000070 96 9e ff 3e ac a2 56 3e 44 12 9c 3e 28 34 30 3e
       0.4992568 0.20960492 0.30482686 0.17207396
000080 f6 70 b4 be 14 83 ff 3e 00 bd 35 3d 0c 40 e3 be
       -0.35242432 0.49904692 0.044369698 -0.443848
000090 cc 7b 8e be 82 4a d1 be e0 87 fb 3c f0 f4 a2 3e
       -0.27828825 -0.40877157 0.030704439 0.31827497
0000a0 ca 75 e2 be e2 ab ef be 80 5b 93 bc 36 3b ea 3e
       -0.4423049 -0.46810824 -0.017987967 0.457483
0000b0 7c d8 f1 3e 00 48 c9 3e 38 2e 24 be cc 1f 94 3e
       0.47235477 0.39312744 -0.16033256 0.2893051
0000c0 60 5c ed 3c 5c 84 d0 be 94 89 2d be 66 91 86 3e
       0.028974712 -0.40725982 -0.16947013 0.26282805
0000d0 f4 34 c2 be ce 67 9e 3e b0 32 bd 3e 76 a2 b6 be
       -0.37931025 0.30938572 0.36952734 -0.35670823
0000e0 1c e7 42 3e 28 54 c6 bd b0 5e f0 3e 00 62 d3 3c
       0.19033474 -0.0968402 0.4694724 0.025803566
0000f0 08 6d 9f 3d 44 11 93 3e 38 9f b5 3d 0c a2 89 3e
       0.07784468 0.2872411 0.08868259 0.26881444
000100 1b 29 19 3f 7f fa 8c 3e 3d 60 19 3f 00 7c 59 be
       0.59828347 0.27534863 0.5991247 -0.21238708
000110 ac e4 51 3e ad 07 c4 be 97 32 c1 3e 0a 99 f8 be
       0.20497388 -0.38287106 0.3773391 -0.4855426
000120 66 fc 4c be 4d 64 1c be c0 69 6d bf d6 ad 98 bf
       -0.20018157 -0.15272637 -0.92739487 -1.192805
000130 54 9f d2 3e fe 95 7a be 93 ee 41 bf 6a 1e 15 be
       0.41137183 -0.2447128 -0.7575466 -0.14562383
000140 f2 e4 84 3c bc 86 5a be c0 4b 07 bf a0 f2 c5 3d
       0.01622245 -0.2134046 -0.5284996 0.09665418
000150 d4 70 6b 3e b4 d8 44 3f d0 47 c0 be a7 f5 53 3c
       0.2299226 0.7689316 -0.3755479 0.012936986
000160 61 d5 e3 3e 12 f2 71 3e 40 e4 8e 3e ee 0a 04 bf
       0.44498733 0.23627499 0.27908516 -0.5157918
000170 90 89 c2 3d 2f 9d cc 3e a6 47 37 3e ab 32 90 bf
       0.09498894 0.39963672 0.17898425 -1.1265463
000180 99 04 14 bb 4a fb 3e 3f 09 23 dd 3e a1 69 32 3f
       -0.0022585748 0.74602187 0.43190792 0.69692427
000190 27 d4 59 3e af 45 71 be 50 17 a0 bf 18 90 2c 3d
       0.21272336 -0.23561738 -1.2507114 0.042129606
0001a0 3f 79 eb be 48 c3 96 3e d1 e5 b3 be 3c 03 f9 3e
       -0.4599094 0.29445863 -0.35136274 0.4863528
0001b0 45 c3 e1 3e e3 d4 9f 3e 58 d3 91 bc 31 61 0e 3f
       0.4409429 0.31217107 -0.017800972 0.5561705
0001c0 a9 d0 4b 3f d9 7c f4 be c5 36 b3 bd 6b f9 26 3f
       0.79615265 -0.477515 -0.08750681 0.6522433
0001d0 61 f5 08 3f 79 e0 93 3e bf fd e8 bd 4b 90 43 3e
       0.5349942 0.28882197 -0.11376523 0.19098012
0001e0 7e 45 13 3f 60 a0 8b be 97 4a d5 3e de 57 86 be
       0.5752791 -0.27270794 0.4165847 -0.26238912
0001f0 42 ca 3f 3f 20 11 fa 3e 68 65 43 bf 88 96 53 be
       0.74917996 0.4884119 -0.7632661 -0.20662892
000200 60 24 af 3e 2b c9 86 3e d4 88 2c 3f de bf 0a 3f
       0.3420744 0.26325354 0.67396283 0.54199016
000210 0e 3e 8c 3e 66 57 16 bf 88 67 78 be bf 4c c5 3c
       0.27391094 -0.5872711 -0.24258244 0.024084447
000220 5a 07 ad 3e b7 0f 63 be 4d 11 90 be 76 47 3b 3f
       0.3379467 -0.22173963 -0.281382 0.73155916
000230 8f 80 7d 3e d5 9e fc 3e cf 52 d8 3e ef 1f f3 3c
       0.24756072 0.4933993 0.42250678 0.029678313
000240 b1 1d c1 3f ea 57 3a 3e bd 83 bb 3e 75 be 3a bf
       1.5087186 0.18197599 0.36623946 -0.72946864
000250 29 a5 48 3f ab bb 9f be 93 10 af bd a0 8b 8a be
       0.78377014 -0.31197867 -0.08548083 -0.2705965
000260 35 96 e3 be 41 3e d2 3e d7 b8 c6 3e ba 3a 21 3e
       -0.44450536 0.4106312 0.38812897 0.15745059
000270 9d eb 27 3e ee a2 8f be d0 d0 ff bd 0e 43 f0 3e
       0.16398473 -0.28053993 -0.12491 0.4692616
000280 47 72 62 3e 4c eb 81 bf a9 2e e5 3e 2a ff 49 be
       0.22113906 -1.0149932 0.4476216 -0.19726244
000290 0a 63 4f bf fb 3c 34 bf 98 0b e7 3e 34 a4 8e be
       -0.81010497 -0.7040555 0.45126033 -0.27859652
0002a0 96 4c ea 3e 4f 20 c2 3c b6 0e 10 bf 84 23 1a 3f
       0.45761555 0.023697047 -0.5627245 0.6021044
0002b0 89 55 7d bf 7f 04 4b be 39 81 1e 3f 55 6d 25 3d
       -0.9895864 -0.19825934 0.6191593 0.04038747
0002c0 a4 1b 3e 3e 10 c6 cb 3e 61 03 86 be 60 39 fd 3e
       0.18565232 0.39799547 -0.26174453 0.49457836
0002d0 c7 51 43 3f 62 69 56 3f 42 9f 92 bf 82 a1 2f 3c
       0.7629666 0.8375455 -1.1454852 0.010719659
0002e0 eb 34 93 3e 8e 0a 14 bf 88 b7 89 bf ec 7c 81 3f
       0.2875131 -0.57828605 -1.0759134 1.0116248
0002f0 45 23 ff be 4b a6 80 be de 0f 40 3f 06 aa e2 3e
       -0.49831596 -0.2512687 0.7502421 0.44270343
000300 39 fc 1e 3f 40 2b 98 bd 80 5c 05 bf 03 e3 2d bf
       0.6210361 -0.07430124 -0.5209427 -0.6792452
000310 12 82 93 3d 52 1a 1d bf 59 e4 18 3d 30 5a 5b bf
       0.07202543 -0.61368287 0.037327144 -0.8568449
000320 43 86 02 bf c9 31 12 3f 30 e8 6e 3e 45 bd 08 bf
       -0.5098612 0.57107216 0.2333076 -0.534138
000330 61 3c 73 be be 0a 10 bf 74 dd 14 be 7d 7d 55 3f
       -0.23753501 -0.5626639 -0.14537603 0.83394605
000340 52 35 8f 3e c2 93 67 bf 42 73 49 be e0 f9 49 3f
       0.27970368 -0.90459836 -0.19672874 0.78896904
000350 a8 01 1b bf e4 2a 4f be af 2d 0f be dd ae 16 be
       -0.605494 -0.20231205 -0.1398227 -0.14715143
000360 36 26 5a be 10 10 26 be ab aa dd be c1 17 0f 3f
       -0.21303639 -0.16217065 -0.43294272 0.5589562
000370 85 02 c0 be 1f fd d9 be 27 77 78 3f e9 69 10 3f
       -0.37501922 -0.4257593 0.9705681 0.56411606
000380 e8 f5 23 bf 7c 13 a2 3f e1 28 ac be 2c 2c 59 bf
       -0.640471 1.2662196 -0.33624938 -0.84833026
000390 c8 08 9b 3d 10 9f 06 bf 09 b4 d8 be d9 02 f4 be
       0.07570034 -0.5258646 -0.42324856 -0.47658423
0003a0 0e f6 a5 be fc 65 f8 be 32 ab 6f 3f e5 3a 94 bd
       -0.32414287 -0.48515308 0.936206 -0.07237796
0003b0 51 5f a0 bd 68 8d 2c bf ac 1f 41 3f b9 52 e8 be
       -0.0783068 -0.6740327 0.7543895 -0.45375612
0003c0 1a c4 2b 3f 56 ee a6 be f4 cf c7 be ed ba 19 3f
       0.670961 -0.3260371 -0.39025843 0.6005085
0003d0 5e b2 66 3d e3 20 04 3c 7e b5 7e be 5e 38 ad be
       0.056322448 0.008064481 -0.24873921 -0.33832067
0003e0 bf 32 43 bf 8f cd 9c 3d 73 70 7c 3f ed 3d 4e be
       -0.7624931 0.07656395 0.98609084 -0.2014081
0003f0 0a 76 01 bf e6 68 b0 be 82 ce 87 bf 38 1d 91 3e
       -0.5057074 -0.3445503 -1.0609896 0.28342605

fc1.weight f4 [128, 64]
000000 94 15 0d bd 18 07 e1 be 6e 3e da 3e 7c 4e 81 be
       -0.034444407 -0.43950725 0.42625755 -0.2525519
000010 f3 ba 15 3f 4a f3 48 3b 30 a8 a9 bd bc f6 b3 3e
       0.58488387 0.003066259 -0.08284032 0.3514918
000020 c1 54 49 3f b3 84 d2 3d 40 37 50 be b2 d9 b0 3e
       0.7864495 0.102792166 -0.20333576 0.34541088
000030 e4 35 05 3f 54 a6 82 bd df e5 b9 be 01 ee 77 3e
       0.52035356 -0.06379381 -0.3630819 0.24211885
000040 2b 84 d8 3c 3b 68 46 3e d4 db 24 bf 92 47 ac 3e
       0.02643021 0.19375698 -0.6439793 0.33648354
000050 09 f8 fa be 95 82 09 bf 05 f8 ac 3e 65 68 68 3e
       -0.4901736 -0.5371488 0.33782974 0.22696073
000060 a7 df 1d bf df 3b b9 be 90 c1 91 be 89 4c a2 3d
       -0.6166939 -0.3617849 -0.2846799 0.07924754
000070 bf 0b 7b be 82 94 81 be 60 ff c6 3e 6c 4c 41 3f
       -0.245162 -0.25308615 0.3886671 0.75507236
000080 ad 3b 02 3f 35 ea 72 3d 66 6b 9d 3e 12 e7 12 3f
       0.5087231 0.05930539 0.30746 0.57383835
000090 d0 94 15 be ba db 03 3e a9 6d 11 3d 23 84 c3 3d
       -0.14607549 0.12876788 0.03550497 0.095466875
0000a0 cc 1e 11 3f e6 4d 8f be 8c c6 2d bf 76 67 77 3e
       0.5668762 -0.2798912 -0.67881083 0.24160561
0000b0 78 ad eb 3e 6f bf d5 3d 79 c9 dd 3e 20 2d a2 3b
       0.46030784 0.10436904 0.43317774 0.004949227
0000c0 51 d8 ee be 75 49 29 bd 58 7d 2f 3e f9 7d 24 3f
       -0.4664941 -0.04132982 0.17137659 0.6425472
0000d0 50 13 15 3e 6e b3 37 bf 42 72 bb 3e 1a 15 df 3d
       0.14558148 -0.7175816 0.3661061 0.10892697
0000e0 53 f7 38 3f 58 14 0e bf 68 fa 91 bd 5a 3d 09 bf
       0.72252387 -0.5549979 -0.07127839 -0.5360924
0000f0 90 dc 96 be 12 a9 52 be 62 ce 21 3f 10 d4 98 be
       -0.2946515 -0.20572308 0.6320554 -0.2984929
000100 d1 6e 5a 3f db 81 3b bf 89 4d ef be f2 90 12 3e
       0.8532534 -0.7324502 -0.46738842 0.14313105
000110 58 4a 9e 3d 96 62 f2 39 af 35 b1 3e 6f f4 03 bf
       0.07729024 0.0004623129 0.3461127 -0.5154485
000120 23 ec c3 be b2 ba 62 3c d8 4e c2 be da c0 00 3e
       -0.38266096 0.013838457 -0.37950778 0.12573567
000130 e0 f4 bf be 78 ea 04 3f a8 61 21 3f 70 ab dc be
       -0.37491512 0.5192027 0.63039637 -0.43099546
000140 24 85 9d 3e a9 fc 75 be c2 c8 8d 3e 2e 7d 45 3e
       0.3076564 -0.24022163 0.2769223 0.19286034
000150 31 7c 19 be 4d d8 77 3e 83 07 98 3e 01 c2 8d be
       -0.14988782 0.24203606 0.2969323 -0.27687076
000160 3e b5 14 bf 5a f6 e3 be 06 1e d6 3d 2f 3f c9 3e
       -0.58089054 -0.4452389 0.10454945 0.39306018
000170 b5 78 05 3f 0e 59 f7 3e ee 51 78 be 90 cf 13 3f
       0.5213731 0.4831013 -0.24250004 0.5773859
000180 33 5f ff 3e 11 dc c4 3e 14 ac 24 3f a5 84 2c be
       0.4987732 0.38449147 0.6432507 -0.16847475
000190 6a 82 3a 3e 46 21 fb 3e f3 11 9e 3e cd 92 c3 be
       0.18213812 0.49048823 0.3087307 -0.38197938
0001a0 9e a9 0f 3f ca 75 d3 3e d7 16 16 be 7b 25 54 be
       0.5611819 0.41300803 -0.1465715 -0.20717423
0001b0 e8 41 a5 3e 3b 44 13 3f 3b d0 8f be e4 31 3c be
       0.32276845 0.57525986 -0.28088555 -0.18378407
0001c0 4c 73 93 3d f1 27 f0 be be c8 4d bf 24 79 fd bd
       0.071997255 -0.46905473 -0.80384433 -0.12376621
0001d0 2c 98 5e 3f ea ad e8 be 7f 05 87 3e b0 9c 99 be
       0.86950946 -0.45445186 0.2637138 -0.30002356
0001e0 df 2d 4f be ab 3e 39 bf 03 00 ff be 1c 80 48 bc
       -0.20232342 -0.7236125 -0.49804696 -0.012237575
0001f0 14 c9 0d be 35 4c a9 3e 13 b1 20 3e 4e 0b 47 be
       -0.13846236 0.33065954 0.15692548 -0.19437906
000200 33 52 ab 3e 7a 8f c7 bd e2 5e e0 3c 5a a7 65 be
       0.3346115 -0.09744163 0.027388994 -0.22427121
000210 3f 4a a2 3e a5 47 93 be 86 f8 1c bf 18 8c 17 3e
       0.3169727 -0.28765598 -0.61316717 0.14799535
000220 23 52 dd be 4f 5f ca 3e 36 08 af 3e b8 b2 dd 3c
       -0.43226728 0.3952584 0.34185952 0.027062759
000230 90 fe c4 be b7 58 9d 3e df 68 da 3e 90 d3 e5 be
       -0.38475466 0.30731747 0.42658135 -0.44887972
000240 44 b7 ff 3e 87 b6 98 bc 19 54 ee 3a 9d 36 13 bf
       0.49944508 -0.018641723 0.0018183022 -0.5750521
000250 34 8b 4a 3d 84 f5 f6 be b6 2a 07 3f 93 a3 f4 be
       0.04944916 -0.4823419 0.52799547 -0.47781047
000260 9b 5c 01 bf 40 0c 8a ba 5f 9a 9c be 47 1b 94 bc
       -0.5053193 -0.0010532215 -0.30586526 -0.018079413
000270 71 be 50 3d a6 34 ff be 91 1d 4c bf dd 91 ca 3e
       0.05096287 -0.49844855 -0.79732615 0.3956441
000280 14 ce 97 be 15 24 b0 3e 29 de 3e 3e e7 9a 8c be
       -0.29649413 0.34402528 0.18639435 -0.2746193
000290 fb 3d 86 3e c8 f8 25 be 66 6f 72 3d 3a 79 07 3f
       0.26219162 -0.16208184 0.05918827 0.5291935
0002a0 83 35 48 3d 13 4c b3 be 73 d4 df be 4e d1 1b 3e
       0.048879158 -0.35018978 -0.43716773 0.15216562
0002b0 38 b9 bd 3e 80 06 7b 3d 43 a4 08 3e 5f ca 7f 3e
       0.37055373 0.061285496 0.13343911 0.24979542
0002c0 f1 6d 92 be 02 93 5e be 3a 79 89 3e 0b 0d 18 bf
       -0.28599504 -0.21735767 0.268503 -0.593949
0002d0 28 64 b6 3e c2 16 e0 3e e1 67 21 bf b1 ad db 3e
       0.35623288 0.43767363 -0.6304913 0.42905954
0002e0 ac a1 ff be e1 96 2d 3f 88 f6 0b 3e 77 23 fc 3e
       -0.49928033 0.6780835 0.13668263 0.49245808
0002f0 14 88 b4 be f7 6d ef be 1c e4 89 3e 0c 74 99 be
       -0.3526007 -0.46763584 0.26931846 -0.2997135
000300 fa 28 08 3f e3 c6 c6 3e 39 35 a2 be d8 0f 08 3e
       0.53187525 0.38823614 -0.3168123 0.13287294
000310 0a 0c 2f 3f 63 45 34 3f 50 53 12 bd cb 59 b3 3e
       0.68377745 0.70418376 -0.035723984 0.35029444
000320 1c 7f fb bd b7 30 5c 3e 84 b5 86 be d1 a3 22 3f
       -0.122801036 0.21502958 -0.2631036 0.63531214
000330 eb 0a 39 3f 0c d9 5a 3e 09 ab 98 3e ac b9 22 3e
       0.72282284 0.2137186 0.2981799 0.1589114
000340 72 e0 be 3e 88 cb d7 3e 9a 61 3f bf 0c c0 83 3e
       0.37280613 0.4214747 -0.74758303 0.25732458
000350 94 13 98 bd 23 30 bf be e6 fe 26 be d1 11 9d be
       -0.07425609 -0.37341413 -0.16308174 -0.30677655
000360 f9 0f a2 be a2 d8 48 3f 8c cd f7 3d 56 31 63 bd
       -0.3165281 0.78455555 0.12099752 -0.055466972
000370 66 14 3a 3e 51 47 7a bd 39 fd 49 3e 81 d7 fc be
       0.18171844 -0.06110317 0.19725503 -0.49383166
000380 05 88 5d 3f fe 19 97 3d 1b 93 da be 27 2a 6c bc
       0.86535674 0.073780045 -0.42690358 -0.014414347
000390 61 c9 55 3f 15 40 f2 3e 9f 6d f6 be da fb 42 3f
       0.83510405 0.47314516 -0.4813051 0.76165545
0003a0 b5 79 44 be 3c 67 87 3e 84 b4 0b 3d 7c f9 c0 bc
       -0.19187053 0.2644595 0.0341077 -0.023556463
0003b0 5e 8d 9e be 7c ea 3f 3e fd d5 c5 be c0 34 5e 3e
       -0.3096723 0.18741792 -0.38639823 0.2169981
0003c0 cb a1 6c bb ae b1 0f bf 62 2a 60 be 9d b5 af 3e
       -0.0036107178 -0.5613049 -0.21891168 0.34318247
0003d0 61 f3 3b bf cc f7 e9 3d e9 ab bc bc 28 4e 6c 3e
       -0.7341824 0.11424217 -0.023031192 0.23076689
0003e0 85 1b 10 bf be 82 1f be 2e a0 e9 3e b7 fb 80 be
       -0.5629199 -0.15577218 0.4563002 -0.25192043
0003f0 f9 ca 17 3f c6 87 ff 3d 6f ba 48 3f b5 3d 1e bf
       0.59294087 0.124770686 0.78409475 -0.6181291

fc1.bias f4 [128]
000000 4d 1d 56 3d f4 29 a1 be 35 e1 55 3d b3 87 d7 bb
       0.052274037 -0.3147732 0.052216727 -0.006577456
000010 a7 33 39 3e 73 26 80 bd 9a 60 7b 3e e7 0a 3f 3d
       0.1808611 -0.062573336 0.2454857 0.046641257
000020 87 84 8a 3e d3 eb b0 bd c3 b6 b7 3a e8 94 d2 bd
       0.27054235 -0.0863873 0.0014016259 -0.10282308
000030 e3 53 04 be da 57 7d 3b 18 9b 44 be a0 d8 d7 3c
       -0.12922625 0.00386571 -0.19199789 0.026348412
000040 58 21 37 3e 1e 9a 15 be 4b 21 e5 3d 17 ae d7 3d
       0.17883813 -0.14609572 0.11187991 0.10531252
000050 85 e0 80 be eb 0b 13 be 67 b4 84 bd ef 35 72 3e
       -0.25171295 -0.14360015 -0.064797215 0.23653387
000060 3d cf 93 bd ce 5c f5 3e cc 04 78 3e cb 78 05 be
       -0.07217262 0.47922367 0.2422058 -0.1303436
000070 a8 6e ae 3d 6d de f3 3d 89 53 a2 bd 6b ac 8a 3d
       0.085172 0.11907659 -0.07926089 0.06771167
000080 c8 83 9d 3d 43 a6 16 be a9 ce a3 3d 2b 2c 0b 3e
       0.07691151 -0.14711861 0.07998402 0.13591067
000090 22 20 3a be 78 43 53 bd 04 3f e3 be 98 48 18 be
       -0.1817632 -0.051578015 -0.44384015 -0.14871442
0000a0 35 0d ba bd fa c8 c9 be 01 14 78 bc f5 b8 a6 3d
       -0.0908455 -0.39411145 -0.015141488 0.081407465
0000b0 56 d7 8f 3e 5e fe 10 3f 69 e5 be 3d 1e c4 91 be
       0.28093976 0.56638134 0.093211 -0.28469938
0000c0 0a b9 df 3b 26 e0 26 be 28 08 be be 08 d7 ab 3e
       0.0068274783 -0.16296443 -0.37115598 0.33562493
0000d0 22 cd af be c4 67 77 3e e9 d8 fc 3c fd 86 9a bd
       -0.3433619 0.24160677 0.03086515 -0.07545278
0000e0 05 88 7c bd 67 e8 3e 3e ae e6 52 3e 83 b8 a4 3e
       -0.061653156 0.18643342 0.2059581 0.3217202
0000f0 c9 63 55 bd ff a2 87 3e 56 19 3c 3e e6 65 82 3e
       -0.052097116 0.26491544 0.1836904 0.25468367
000100 05 a1 b8 3d 5d 0c e0 3e 8c 55 ff 3d 86 1c ef 3d
       0.09015087 0.43759432 0.12467489 0.11675362
000110 c3 d6 be bd d3 41 14 be 7b e7 47 bd 8e 55 e8 bd
       -0.09318306 -0.14478235 -0.04880474 -0.11344443
000120 b5 4a 1e 3e 0b e2 33 bd 3a 6d d6 3e 50 2f 0f be
       0.15458186 -0.043916743 0.41880208 -0.13982892
000130 c6 f5 42 3d 7f a5 96 3d 8a 2a 6c 3d 2e 41 a3 bc
       0.04759767 0.073557846 0.057657756 -0.019928541
000140 23 e2 52 3e f6 3d 5d bc 72 80 85 3e 63 98 b7 3d
       0.20594077 -0.013503542 0.26074558 0.08964612
000150 55 93 8e be ef fc 78 be a9 18 c6 3e 8c 77 57 3e
       -0.2784678 -0.24315237 0.3869069 0.21041697
000160 12 9a d4 bd c2 ca b9 3e b4 2c 1c 3a 39 0d 59 bc
       -0.10380949 0.36287504 0.0005957589 -0.013247781
000170 48 09 94 be e0 17 3f 3e 65 2f ca 3d bc 57 74 bd
       -0.2891333 0.18661451 0.09872321 -0.059653983
000180 51 25 36 3d ce 0a 0a 3d 60 b7 5d be 9b 38 e5 3e
       0.04446918 0.03370171 -0.21651983 0.4476975
000190 50 85 f2 3c 2b e2 4a be 24 bc 07 bf 9e 50 e8 3d
       0.029604584 -0.19812839 -0.53021455 0.113435015
0001a0 23 7e 4b bd ae 34 11 bc ca cd 29 be 15 6f 0a 3e
       -0.04968084 -0.0088626575 -0.16582409 0.13518937
0001b0 49 94 4c 3e cc 40 06 3e e2 29 2b 3e 7b c3 87 ba
       0.19978441 0.13110656 0.16715196 -0.001035794
0001c0 aa 1c c1 3d 64 33 89 be 44 5d e2 bc 12 8d 12 3e
       0.09429295 -0.2679702 -0.027632363 0.14311627
0001d0 d6 ff 1f 3e 44 35 0e bd 80 7f 4f be 1f d3 84 bc
       0.15624937 -0.034718767 -0.20263481 -0.016213952
0001e0 21 53 8a 3c c9 b3 de 3d 7c 6c fc 3c a6 b4 e5 3d
       0.016885342 0.10874135 0.030813448 0.112160966
0001f0 2a da 5d 3e fb e9 97 3e 78 c6 ac be 6b 9a 17 3e
       0.21665254 0.296707 -0.3374517 0.14805

fc2.weight f4 [151, 128]
000000 e3 d4 81 be 4d 7d 39 3b 9f 17 1d 3e 21 43 35 bf
       -0.25357732 0.0028303445 0.15341042 -0.70805556
000010 9e 03 e3 be e1 83 db be 05 24 95 be e1 0d e1 3c
       -0.44338697 -0.42874053 -0.29129043 0.027472438
000020 fb 71 87 bd eb 11 f4 be 42 2b 89 3d 99 2a 83 be
       -0.06613537 -0.4766992 0.06697704 -0.25618437
000030 97 39 59 be 9d 9a 52 be d1 e0 a3 3e 48 9d 82 bd
       -0.21213375 -0.20566793 0.3200746 -0.06377655
000040 cd 86 96 3e 63 ed 1a 3e 4f be c7 3e 0f 6a d8 3e
       0.2939972 0.15129618 0.3901238 0.42268416
000050 31 41 2f 3e 25 ff 93 bc 59 0a b0 3d e5 b8 d2 3b
       0.17114712 -0.018065998 0.08595724 0.0064307326
000060 a4 8e f7 3e 70 a7 e9 bd d8 59 2b 3e ac ee b0 3e
       0.48351014 -0.11408889 0.16733491 0.34557092
000070 58 f1 cb 3e 51 03 5f be d6 61 a1 3d e8 30 54 be
       0.39832568 -0.21778609 0.07879989 -0.20721781
000080 85 48 a8 bd ca 2f b6 be 1d 08 21 3e 41 0c 01 bf
       -0.08216957 -0.35583335 0.15725751 -0.5040932
000090 93 52 4c be 5a e7 b7 be 04 31 f4 be 83 49 d3 3e
       -0.19953375 -0.35918695 -0.47693646 0.41267022
0000a0 d5 0a 9a be d4 cd ba bd b6 9c 11 3e ea e4 c9 be
       -0.3008639 -0.0912129 0.14219937 -0.3943246
0000b0 fa 00 19 bd bb 49 c9 3e 6a a3 13 bf f8 5a c6 3d
       -0.037354447 0.39314064 -0.57671225 0.0968532
0000c0 a8 0f a8 be 7d 6c 1b 3f 6f 6f a0 be 63 1a a1 3e
       -0.32824445 0.60712415 -0.31335017 0.31465444
0000d0 65 e3 85 3c 31 f9 d1 be 65 c5 37 3b c2 ef b4 3e
       0.016343782 -0.4101043 0.002804124 0.3533917
0000e0 38 d1 60 be 76 78 8e 3e 70 eb 75 be 1f 4b 33 3e
       -0.2195481 0.2782628 -0.24015594 0.17509125
0000f0 b9 9f cc 3e 98 10 86 3e 2d c7 2c bf cc 0d 68 bb
       0.3996561 0.26184535 -0.6749142 -0.0035408614
000100 26 b2 49 3e ad a8 fa bd e3 75 03 3e 72 da 1b 3e
       0.19696864 -0.122392036 0.12837939 0.15220049
000110 95 33 8f 3e 35 65 28 3f 49 91 7b 3e 2a 54 a4 be
       0.2796904 0.6577943 0.2456714 -0.32095462
000120 8a 20 55 3e 34 85 de 3d ee f0 c1 3b 1e b1 42 be
       0.20813194 0.1086525 0.0059186136 -0.19012877
000130 4e d0 ba 3e b6 b2 5d 3e 02 51 4d bd 8d 0d d6 bd
       0.3648705 0.21650204 -0.050126083 -0.10451803
000140 aa 55 25 3e 0f 89 08 be cd df 61 bd db 88 ae 3c
       0.1614596 -0.13333534 -0.055145074 0.021305492
000150 f9 8e 1d bf aa 06 02 be 84 36 21 3d c4 42 be bd
       -0.61546284 -0.12697855 0.03935863 -0.09290078
000160 64 a6 dd 3e b2 da b0 bd 9d a5 f6 be 42 4b a3 be
       0.43291008 -0.08635463 -0.48173228 -0.31893355
000170 68 d4 1a be 65 7b 04 3f b5 28 23 3f 3b a1 ec 3d
       -0.15120089 0.51750785 0.6373399 0.1155419
000180 df 55 79 bd 43 a2 0f 3d fa ea ba 3e 9a 9b 5b 3c
       -0.06087291 0.035066854 0.36507398 0.0134037975
000190 57 4b 0d bf 44 d7 27 be d9 09 88 3e 78 f8 f5 3e
       -0.55193084 -0.16390711 0.26570013 0.4804113
0001a0 56 5a 0d 3f af b3 2c 3f 33 ca 53 be 28 1e a7 3d
       0.55215967 0.67461675 -0.20682602 0.08160049
0001b0 84 45 94 be f1 ad 17 be c9 1c 97 3d 8c 3e a2 3c
       -0.28959286 -0.14812447 0.07378537 0.019805215
0001c0 d2 d2 02 bf f9 92 62 3e 32 f7 d4 bd 09 6f fd bc
       -0.51102936 0.22126378 -0.10398711 -0.030936735
0001d0 5d 19 02 3f d9 fd dc 3e dc 38 93 3e 9e 35 71 3c
       0.5081995 0.4316242 0.28754318 0.014722256
0001e0 9c 31 f5 be 8e 27 8e 3e 99 c4 08 be 97 73 44 3e
       -0.4788941 0.27764553 -0.13356246 0.19184719
0001f0 23 87 69 3e cf ae d5 3e f4 29 0d 3f 69 11 6b 3d
       0.22805457 0.4173493 0.5514214 0.05738965
000200 80 db 83 3e 8b 38 66 bb 3e c2 08 3f ad bd ee bd
       0.25753403 -0.0035128917 0.5342139 -0.116572715
000210 07 d8 84 be 0a 36 1f be 5c 4b 9c be 66 59 d8 3e
       -0.25946066 -0.15547958 -0.30526245 0.42255706
000220 ce f9 aa 3e 9c 5d 08 be 65 a6 3c 3e a9 a4 86 be
       0.3339371 -0.13316959 0.1842285 -0.262975
000230 aa 42 30 be 4f 60 eb 3d 0c 03 8a be 1f df ec bb
       -0.1721293 0.11492979 -0.2695545 -0.0072287465
000240 b2 58 11 be 1a 3b 71 be e3 66 74 3e c5 aa 03 bf
       -0.14193991 -0.23557702 0.23867373 -0.5143245
000250 8d d0 e5 3d 00 aa d5 bb 78 ba d3 be 61 22 7e be
       0.112214185 -0.0065205097 -0.41353202 -0.24817802
000260 78 c0 34 be 9c ef b1 be 7b 49 39 bc 6a 44 f6 be
       -0.17651546 -0.3475312 -0.011309023 -0.4809907
000270 e5 93 95 bd 73 70 8f be f9 03 fa bd e5 76 ea 3c
       -0.07303599 -0.2801548 -0.12207789 0.028621146
000280 ea b2 16 3e 32 b1 fe be 81 04 c9 bd f6 c4 ce 3e
       0.14716688 -0.49744564 -0.09815312 0.40384644
000290 83 65 0e be c2 65 2f 3d a5 69 ec bd 28 60 96 bd
       -0.13905911 0.042821653 -0.115435876 -0.07342559
0002a0 e4 a6 d2 be a8 a6 23 bf 4e fb b7 be 88 45 2a be
       -0.41142952 -0.6392617 -0.35933918 -0.16628087
0002b0 08 52 00 bd 4e 45 8c be 43 3f 15 bf 0e b3 8a be
       -0.03132823 -0.27396625 -0.58299655 -0.27089733
0002c0 23 54 38 bd e6 c5 47 bc 44 32 53 3e 77 c4 5f 3e
       -0.045002114 -0.012193179 0.20624644 0.21852289
0002d0 4f 71 d1 3d 81 8e b1 3e 27 f7 95 3e ca 88 92 be
       0.1022669 0.34679034 0.29290125 -0.28619987
0002e0 48 81 57 3e 78 dd 5c 3e 77 bb 28 3f d1 4a 56 be
       0.2104541 0.21568859 0.6591105 -0.20926978
0002f0 9c fb d5 3e 4c 30 17 3e d3 bd 12 3f ba ad 99 bd
       0.41793525 0.14764518 0.573209 -0.07503839
000300 a6 52 3b be 51 01 32 be 87 3e a4 bd 5d 7a dd bd
       -0.18293247 -0.17383315 -0.08019739 -0.108143546
000310 f1 a4 08 bf f2 84 b6 be 0e 2b a6 3e 19 80 e5 3e
       -0.5337668 -0.35648304 0.32454723 0.44824293
000320 e3 2a 81 3e 30 cf 03 3e c8 18 42 be 2a 0a 1a 3e
       0.25228032 0.12872005 -0.18954766 0.1504294
000330 36 4b 6e 3e 38 bc e3 3d 20 e6 26 3d 56 88 e4 3d
       0.23270878 0.11119884 0.040746808 0.111588165
000340 60 2e cc be f0 70 9a bd 9d c9 9a 3e 22 9f 03 be
       -0.3987913 -0.07541072 0.30231944 -0.12853673
000350 e2 ae 0b 3f df 15 a1 3e e1 6b 20 3e 18 e2 aa 3e
       0.54563725 0.31462 0.15666153 0.3337562
000360 15 47 49 3e 39 ad 03 3f 4f fd ba be 30 7b 06 bf
       0.19656022 0.5143619 -0.36521384 -0.5253172
000370 8d ad 82 3d a3 de d6 bd c1 0f 69 be 9b 8d 13 bf
       0.063807584 -0.10491683 -0.22759916 -0.5763795
000380 b1 4a 60 be 8c 76 2f 3e 95 58 31 be e0 0d a9 3e
       -0.21903493 0.17135066 -0.17318948 0.33018398
000390 c3 ec a5 3e 60 e3 c8 3e c7 f8 bd be 01 b5 af 3e
       0.32407197 0.39235973 -0.37103865 0.34317783
0003a0 c1 84 11 3f 7d 62 bb be 80 24 aa 3e 15 8a d2 be
       0.5684319 -0.36598578 0.33230972 -0.41120973
0003b0 90 99 0b 3f ba 65 0d be 28 5c f0 3e 19 eb 44 3f
       0.5453119 -0.13808337 0.4694531 0.7692123
0003c0 31 4c d2 3d 99 66 86 be 03 68 a8 3d e5 2c 81 be
       0.102684386 -0.2625015 0.08222964 -0.25229564
0003d0 ea f3 0e 3e 0f ed 60 be e3 53 7d 3e 0c 2b 8a be
       0.13960233 -0.2196543 0.24739031 -0.26985967
0003e0 53 94 bf be a5 9e b0 be 2e a1 ce 3e 06 3b 4a be
       -0.3741785 -0.34496036 0.40357345 -0.19749078
0003f0 b0 e2 78 3e 8a 22 99 3e 69 21 4a be fe e5 90 be
       0.24305224 0.29909164 -0.19739307 -0.2830047

fc2.bias f4 [151]
000000 b7 8c 9b bd 0c 72 22 3e 13 6c af 3d 44 9f ea be
       -0.075951986 0.15863818 0.085655354 -0.45824635
000010 fd de 29 3e c3 5a 79 be 72 a9 2f 3e 81 79 de 3d
       0.1658897 -0.24351029 0.17154482 0.10863019
000020 2c f6 83 bc aa 76 9a be e9 27 04 3e 0c fd e6 3d
       -0.016108595 -0.30168658 0.1290585 0.112787336
000030 b5 53 d8 3d 3d 2b 30 be 75 6b 7d 3c 23 3e a9 3d
       0.10562841 -0.17203994 0.015467514 0.08263805
000040 b9 03 c3 3b 3d 09 27 3d dc cb 65 bd 80 16 4e 3e
       0.0059513715 0.040780295 -0.05610262 0.2012577
000050 83 1f 8c 3d 4d 61 6c be c7 6f 76 3d 55 3c d3 bc
       0.06841948 -0.23083992 0.060165193 -0.025785604
000060 02 60 18 be ee 55 18 3e cb 82 bb 3d c2 d3 c3 3e
       -0.14880374 0.1487653 0.09155806 0.38247496
000070 3a 06 bf 3d 18 bc 80 3d f3 74 26 3d 9b 37 a8 3d
       0.093273595 0.06285876 0.040638875 0.08213731
000080 1c dc 31 3d 78 0c af 3e 6f 8a ce 3d dc 3e 3a 3d
       0.043422803 0.341892 0.10084998 0.045470104
000090 4c cd 6c 3e 38 20 ba 3c 6c 41 92 3d 55 bf cd 3d
       0.2312519 0.022720441 0.071413845 0.10046259
0000a0 c9 58 d7 bd c4 cc 6d bd 9c 9f 80 be 0a 12 f3 bc
       -0.10514981 -0.058056608 -0.25121772 -0.029671688
0000b0 5b 94 4e bd 9f a4 90 3e fd 62 88 be 5a a4 a1 bc
       -0.05043445 0.28250596 -0.26638022 -0.01973169
0000c0 c7 13 07 3e 1d d7 80 3e 77 f5 3f bd 85 4c 02 bd
       0.13191138 0.25164118 -0.046864953 -0.031811256
0000d0 d6 7d 24 3c 13 29 9a 3d 4f 2f b9 3e 3b 48 2a be
       0.010039767 0.075273655 0.36168906 -0.16629116
0000e0 87 12 82 be 8a 26 2f be ad 11 99 bd 6f 9f 88 3d
       -0.2540476 -0.17104545 -0.074740745 0.066710345
0000f0 dc 37 3e 3d 8d eb a3 b9 e6 8f 11 bd a9 1b c0 be
       0.04643999 -0.00031265282 -0.035537623 -0.37521103
000100 aa 1d b7 bc bd 6f 28 3e 2b 08 30 bd ce a8 c4 bd
       -0.022353012 0.16448875 -0.04297654 -0.096025094
000110 64 f1 19 3e f4 f0 d4 be 90 2d aa be c4 c7 ad 3e
       0.1503349 -0.41590083 -0.33237886 0.33941472
000120 b1 d0 00 3d 48 4b e9 3d 6c 04 a9 3d fc 32 c2 3d
       0.031449024 0.11391312 0.082527965 0.09482381
000130 f9 61 ee bd ff 58 ac 3c ff c6 85 be 8f 88 72 be
       -0.116397806 0.02103853 -0.26128384 -0.23684905
000140 c5 0c 05 be ad 60 a1 be ce 37 9e bd ee 0c 6a bd
       -0.12993152 -0.3151907 -0.07725488 -0.057141237
000150 cf 0d 28 bc 97 24 73 be 10 65 80 be dd d4 af 3f
       -0.0102571985 -0.23744427 -0.25077105 1.3736836
000160 29 97 cf bd 0e 78 53 3e 0a 0d 00 be a1 dd 68 bd
       -0.101362534 0.20651266 -0.12504974 -0.056851987
000170 c0 92 00 bd 29 cb bb 3e 5d 0e 86 3e cf cd 9e bd
       -0.03138995 0.36678436 0.26182833 -0.077540986
000180 46 73 ab 3d 57 0c 59 3e 31 1a e7 3c d3 0e f1 bd
       0.08371596 0.21196114 0.028210731 -0.117704056
000190 cb fe 31 be ff 83 60 3e 36 c7 27 3e f7 b4 fe bd
       -0.17382352 0.21925353 0.16384587 -0.1243686
0001a0 1c 10 18 3e 9b 3f 3a be e1 aa 82 bb a8 aa c9 3d
       0.14849895 -0.18188326 -0.0039876555 0.09847003
0001b0 27 a4 35 be 60 4c 4b 3e f3 d4 e4 3d e9 9b a3 bc
       -0.177384 0.19853354 0.11173429 -0.019971805
0001c0 ce 40 21 be 28 f9 8d be b4 9d 98 3d 6d a8 72 3e
       -0.15747377 -0.27729154 0.074519545 0.23697062
0001d0 2e 59 45 be 85 6c 69 3d 7d f0 d8 3c 48 b4 c0 3d
       -0.192723 0.056988258 0.026481861 0.09409386
0001e0 b6 ff 63 be 64 c8 d7 3d c3 c7 21 3e 11 e4 59 3d
       -0.22265515 0.10536268 0.1579886 0.053196017
0001f0 23 e9 06 3e e2 fa 66 be 5b b0 41 be 32 df e3 bc
       0.13174872 -0.22556642 -0.1891493 -0.027816389
000200 f4 a8 06 be 9c 4e 9e bd 4c 4d 26 be c9 43 b5 bd
       -0.13150388 -0.07729837 -0.16240424 -0.088508196
000210 23 b6 81 bd a4 d3 57 be c0 a5 93 3d 94 e1 1b be
       -0.06333568 -0.21076828 0.07209349 -0.1522277
000220 2a c9 1f 3e 85 7e f6 3d ec 2d ce bc 97 4c cf 3d
       0.15604082 0.120358504 -0.025168382 0.1012203
000230 88 82 ac bc b6 e8 76 bd 97 c9 c9 3d e2 b8 72 be
       -0.021058336 -0.060280524 0.09852903 -0.2370334
000240 aa 73 83 be 9a f4 10 bc ae db 1a bd cb 51 4f bd
       -0.25674182 -0.00884738 -0.03780716 -0.050615113
000250 0c 23 50 be 7a c3 f1 3d e1 2f 09 be
       -0.2032587 0.11804862 -0.1339717
