predictor/sample_models/1/model.pth (torch, 126107 bytes, 5 tensors)

embedding.weight f4 [52, 64]
000000 bc 80 b3 be c0 84 1b bc b8 06 ed 3e bc 79 5c 3e
       -0.35059154 -0.009492099 0.46294188 0.21530813
000010 5a f2 fb 3e 7c d3 86 be 30 d4 b9 3e 0c a5 7f be
       0.49208337 -0.26333225 0.362947 -0.24965304
000020 64 c7 b8 be d0 a4 23 be 78 b8 ae be f4 9b 0d be
       -0.36089623 -0.1598084 -0.34125113 -0.13829023
000030 42 31 e5 be c0 fc 31 be 84 a2 cc be c2 22 bc 3e
       -0.44764143 -0.17381573 -0.3996774 0.36745268
000040 7c 08 64 be 4c e2 af 3e b4 cd cb 3e 96 a9 b3 3e
       -0.22268862 0.34352338 0.39805377 0.3509032
000050 dc 45 50 be a0 c8 89 bd b4 56 e4 3e d8 76 82 3e
       -0.20339149 -0.06727719 0.445974 0.25481296
000060 00 0f 1e 3c 80 7f be 3e e0 e5 5b 3e b4 b6 07 be
       0.009647131 0.3720665 0.21474409 -0.1325329
000070 80 84 0e bd 60 af b4 be a0 62 ef 3e f4 be f1 be
       -0.03479433 -0.3529005 0.46754932 -0.47215998
000080 40 90 7b 3e 70 07 26 be 64 24 fd be 46 a4 c6 be
       0.24566746 -0.16213775 -0.49441826 -0.38797206
000090 aa 5f 9d 3e d0 e3 8e bd d8 20 b7 3d 24 94 da be
       0.30737048 -0.069770455 0.08941811 -0.42691147
0000a0 38 98 d9 bd 40 6f 09 3d 8e a6 c1 be 94 24 05 3e
       -0.106247365 0.033553362 -0.37822384 0.13002235
0000b0 ca 8e 94 3e e4 6d d5 be 80 78 25 3e 40 7c 2b 3e
       0.2901519 -0.41685402 0.16159248 0.16746616
0000c0 80 bf 9d bd dc 16 f3 be 38 ab e4 3e a4 31 03 be
       -0.07702541 -0.47478378 0.4466188 -0.12811905
0000d0 00 0c 8e 3b 38 0a 5b be 40 e3 4b 3d 62 1e b9 3e
       0.0043349266 -0.21390617 0.04977727 0.36155993
0000e0 98 09 88 3e 40 d6 bf bd dc 90 7c 3e 00 94 94 3b
       0.2656982 -0.09367037 0.24664634 0.0045342445
0000f0 90 a6 a1 3d b8 17 8c be 48 89 43 be 00 fc a3 ba
       0.078930974 -0.27361846 -0.19095337 -0.0012511015
000100 67 1e b1 be 5e d2 4a bf 98 c1 a0 3e dc 95 15 3f
       -0.34593508 -0.79227245 0.313977 0.5843179
000110 61 9a fd be cc 58 82 3e 76 30 8c 3d c9 b9 bb 3e
       -0.49531844 0.25458372 0.06845181 0.3666518
000120 b7 9e 2f bf 62 dc fd 3e 7e 91 22 3f ed 6e 29 3d
       -0.68601555 0.495822 0.63503253 0.041365553
000130 67 89 16 be ef 17 a2 bd b4 de 18 3f 32 13 35 3f
       -0.14700852 -0.07914721 0.5971482 0.70732415
000140 a2 2b 7d 3d da 0f 92 bf da dd 16 be 3b 5f b0 bd
       0.06180919 -1.1411088 -0.14733067 -0.08611914
000150 4a 1f 17 bf 52 2b 3a 3d e5 a7 91 be 1a 7d d5 3e
       -0.5903212 0.04545147 -0.28448406 0.41697007
000160 22 53 0f 3f 90 df 58 3e 18 86 41 be 8d 47 3a 3e
       0.55986226 0.21179032 -0.18898809 0.18191357
000170 45 5d 3d bd e2 d8 1d 3f 7c c7 8f be 61 85 66 3f
       -0.046231527 0.6165906 -0.28081882 0.9004727
000180 14 28 91 3d a3 21 8d bf 44 9f 09 bf fd f6 01 3f
       0.070877224 -1.102589 -0.53758645 0.507675
000190 9d d1 c4 be a3 40 1b bd 2c db 5e 3e 72 27 08 be
       -0.38441172 -0.03790344 0.21763295 -0.13296297
0001a0 af dd 97 3f ab 2c 6f 3d a0 e2 6f bf 15 f1 2f bf
       1.1864527 0.058392208 -0.9370518 -0.68727237
0001b0 db 66 c2 bd c0 36 cd 3e d7 08 1e 3e 28 84 e7 3e
       -0.094922744 0.40080833 0.1543306 0.45218015
0001c0 52 cb d0 3e 3d 2c 60 bf 4e 87 23 bd 71 1f 0f bf
       0.4078012 -0.875675 -0.03992396 -0.5590735
0001d0 77 d8 bd 3e cc 5d d5 be 7a 2f 7e bf 97 33 30 bf
       0.37079212 -0.41673124 -0.99291193 -0.6882872
0001e0 06 80 dc bb 3b 5b dc be c3 6e a4 3e 3c 85 1f 3e
       -0.006729129 -0.43038353 0.32115754 0.15578169
0001f0 37 2d 7e 3e 39 13 4b 3c e1 75 5e bd af 3d 8a bd
       0.24821936 0.01239472 -0.054311637 -0.067500465
000200 0b 92 8d 3e 23 eb 3c 3c 99 4f be be 15 6f 8a 3e
       0.27650484 0.01153067 -0.37170103 0.27037874
000210 71 6b 09 be ca 97 90 be c2 73 8f 3e cf a0 fa 3e
       -0.13419892 -0.28240806 0.28018004 0.48950812
000220 52 21 6e 3d 0c 3d cb be f0 e2 ba 3e a5 c8 86 3e
       0.058137245 -0.39695013 0.36501265 0.26324955
000230 10 23 9c be c0 cb 3d be 29 76 6e be 9b f1 a7 3e
       -0.304955 -0.18534756 -0.23287262 0.32801518
000240 be 80 1d 3f ff f0 b5 3f f9 e4 0d bf 1f b9 b3 3e
       0.6152457 1.4214171 -0.5542751 0.35102174
000250 e2 e1 4f 3e 93 88 10 3f fb 2f f9 3e d4 39 d2 3d
       0.20301011 0.56458396 0.4866942 0.10264936
000260 06 60 59 3e 0b 5a bd 3e d6 eb a0 bd e7 70 52 3f
       0.21228036 0.3698276 -0.07857482 0.82203525
000270 bd 1e 80 3d 32 68 50 bf 45 aa 09 bf 22 7c 38 3e
       0.06255863 -0.8140899 -0.53775436 0.18016103
000280 03 2b 01 3f b6 51 8e 3f f9 b9 13 bf da c3 89 3e
       0.50456256 1.1118686 -0.57705647 0.26907235
000290 12 4b e4 3e c7 86 1e 3d a5 4d 89 bf c6 b8 6c 3d
       0.44588524 0.038702752 -1.072682 0.0577934
0002a0 82 5a 48 bf 04 32 d4 be fb 56 29 bd 3d f1 84 bf
       -0.78263104 -0.4144441 -0.041342717 -1.038612
0002b0 ee b1 94 bc 26 6c 30 bf 2a ac 6c bf d0 58 6d 3f
       -0.01815125 -0.6891502 -0.924502 0.9271364
0002c0 e0 0f c9 be 01 74 57 bf 54 85 01 bf 69 b5 e8 be
       -0.39269924 -0.8416138 -0.5059407 -0.45450905
0002d0 12 f9 bb be 9c 9b 27 bd 9c d7 9b 3f e9 6c 43 3f
       -0.36713463 -0.040919885 1.2175174 0.7633806
0002e0 b2 66 22 3c 9d 0f 3b bf e2 a5 c2 be 31 16 c5 3d
       0.00991218 -0.730707 -0.38017184 0.09623373
0002f0 84 8b f3 3e 37 dc 3a 3f 09 71 b8 3d c0 61 08 bf
       0.4756738 0.7299227 0.09005935 -0.53274155
000300 81 e6 54 be d2 f9 5f be 2d 24 af be 2c c7 54 3e
       -0.20791055 -0.21872643 -0.34207287 0.20779103
000310 23 69 23 bf 6c 58 3b bf 1d 94 37 bf 7f d8 49 3d
       -0.638323 -0.73181796 -0.7171038 0.049278732
000320 40 75 48 be cd 9d a0 3e 57 e0 f2 3e 3d 4c 08 3f
       -0.19575977 0.31370392 0.47436783 0.5324133
000330 22 03 88 3f a9 c4 e7 be 29 ad 7e be fa c4 c7 bc
       1.0625956 -0.45267227 -0.24870743 -0.024385918
000340 48 c6 00 3f e1 15 95 be d2 cb bb be d2 8c 31 3f
       0.50302553 -0.29118255 -0.3667894 0.693555
000350 9d 6c da 3e da db bf 3e 28 31 11 bf 35 a4 3a bf
       0.4266099 0.3747242 -0.5671563 -0.7290681
000360 2b 4c 28 be 29 fa 14 bf 76 4e 2e 3f 6a 86 1a bf
       -0.16435306 -0.58194214 0.6808847 -0.6036135
000370 aa 1e 0e bf 2e 72 70 3e 9d ed 85 bf 35 b4 73 3e
       -0.5551554 0.23481056 -1.0463139 0.23799212
000380 84 8c 6c bf b7 26 47 3f 45 d2 9e 3e b8 d5 32 bf
       -0.9240191 0.7779345 0.31019798 -0.6985736
000390 4c ba 30 bf 87 44 34 bf 44 39 9a 3f 75 53 45 3e
       -0.69034266 -0.70417064 1.2048726 0.19270118
0003a0 18 6a 62 3f 07 58 ab 3e a8 db 84 3d fb 58 66 3f
       0.88443136 0.33465597 0.064872086 0.89979523
0003b0 07 56 d5 bd ad e4 27 3e a9 17 fb 3e 5b 4c 57 be
       -0.10416799 0.16395827 0.4904149 -0.21025221
0003c0 89 66 93 3e 0d ff 88 bf 0e 66 1b 3f 65 db 0d 3f
       0.28789166 -1.0702835 0.607026 0.55412894
0003d0 4b 4f a1 3d 96 ec 2d 3f 02 2a aa 3d bd 61 8b 3e
       0.07876452 0.67939126 0.083087936 0.27223006
0003e0 ba 14 6d 3e 43 cc a6 3e d6 17 24 3f 9a 5b 26 bf
       0.23152438 0.32577714 0.6409887 -0.6498352
0003f0 d5 34 1a bf 72 0d 36 bd cf 4f a4 be 8a 0d bb bd
       -0.60236865 -0.044446416 -0.3209214 -0.09133442

fc1.weight f4 [128, 64]
000000 64 19 b8 be 7f 39 d1 be be 60 0c 3f 22 c2 b3 3e
       -0.35956872 -0.4086418 0.54835117 0.3510905
000010 c4 ce b6 be a7 94 2d bf 4b 10 b8 3e ab 5b 18 bf
       -0.35704625 -0.6780495 0.3594993 -0.59514874
000020 08 48 8f 3e 15 af 01 bf 47 78 41 3f 16 22 3a 3f
       0.27984643 -0.5065778 0.75574154 0.7270826
000030 b9 4f 31 3e 9d ce 42 be 13 43 76 be 35 9b 0d 3f
       0.17315568 -0.19024129 -0.24049024 0.5531495
000040 73 b4 20 bf 1c d2 04 bf ee cd c7 be 27 36 e9 3e
       -0.62775344 -0.518831 -0.390243 0.45549127
000050 8f b8 cd 3d b5 1e ed 3d b1 95 5e 3e 59 3f 7f bd
       0.100449674 0.115781225 0.2173679 -0.062316272
000060 0a fc 9d be 35 16 fc bd 02 f1 9a bd 73 08 8a be
       -0.30856353 -0.12308923 -0.075655 -0.2695957
000070 0f 4e 33 bf f0 62 da be b6 6a d4 be c8 f1 80 be
       -0.7004098 -0.42653608 -0.41487664 -0.25184464
000080 47 5d e8 be 00 91 12 3f 73 c1 d5 be a3 7d 1a b9
       -0.45383665 0.572525 -0.41749153 -0.00014733388
000090 f9 31 08 3f 21 d9 6d be fe c3 91 3e b4 40 85 3e
       0.5320125 -0.2322736 0.28469843 0.26025927
0000a0 82 21 4c 3e e1 fe 84 3d 2c e5 70 be 14 b7 35 3e
       0.19934657 0.06493927 -0.23524922 0.1774562
0000b0 cc b2 ec 3b 3a 73 25 be f9 e1 f8 be 5c c4 8f 3d
       0.0072234627 -0.16157237 -0.48609903 0.070198745
0000c0 b7 fe bc 3d a3 9b 82 3e a9 09 ec be cd cb 8f 3e
       0.092282705 0.25509366 -0.4610112 0.28085175
0000d0 8e 15 59 bf e2 2d 6f 3e fd 45 81 3e 6b 44 01 be
       -0.84798515 0.23357347 0.2524871 -0.12623756
0000e0 22 92 f5 be ad 45 00 3d 10 8e 9b be 63 e5 84 3e
       -0.47963053 0.031316448 -0.30381823 0.25956258
0000f0 65 7f 90 bd 1c 2f 04 be d5 b8 84 bc 4c 6d a8 3e
       -0.070555486 -0.12908596 -0.016201416 0.32895887
000100 fc 2e de 3e e8 d5 12 3f 63 17 09 bf b7 ba 16 be
       0.4339522 0.57357645 -0.5355131 -0.14719664
000110 2e e4 ac 3e 8b 30 ce 3d 60 8c 8a be b2 b4 d1 be
       0.33767837 0.100678526 -0.27060223 -0.40958172
000120 7b 4c d9 3d 3a d8 21 3d ae 33 47 be 44 06 04 bf
       0.106102906 0.03951285 -0.19453308 -0.5157206
000130 17 27 5d be 24 df 27 3f 2b 8b 77 3d 6c 8f 1a 3f
       -0.21596943 0.6557486 0.060435455 0.60375094
000140 08 d3 75 3e 73 cb 07 bd 42 0a 20 3f 8b f0 8a 3e
       0.24006283 -0.03315301 0.6251565 0.27136645
000150 a1 60 25 be 81 0a bc be 74 e6 8f 3e 05 02 01 3f
       -0.16150142 -0.36726764 0.2810551 0.50393707
000160 5c 05 72 3e 2f d9 11 bf 8e 96 27 3f e1 8a 37 b9
       0.23634857 -0.5697202 0.65464103 -0.00017503976
000170 4f 97 1b 3f 0f 7b 4c be a6 fb 02 3f d8 1d 34 be
       0.60777754 -0.19968818 0.51165235 -0.1758951
000180 57 e4 ff 3e a0 20 09 3f 19 2b b0 be e0 01 ba 3d
       0.49978897 0.53565407 -0.3440788 0.09082389
000190 ec 31 b0 3d 6d 82 6a be f2 e8 a6 be a4 dd 04 bf
       0.08603272 -0.22901316 -0.32599598 -0.51900697
0001a0 86 c2 02 bf 36 77 7a be 17 07 72 3e 0f 6d fd bd
       -0.5107807 -0.24459538 0.23635517 -0.12374317
0001b0 f3 17 de be f4 31 4a be 1a 24 cc be 2d 6e 8c be
       -0.43377647 -0.19745618 -0.39871293 -0.27427807
0001c0 f8 df 89 bd ab 30 fe 3e 43 6e 9c 3d 88 3a 7b bd
       -0.06732172 0.49646506 0.07638218 -0.061335117
0001d0 f1 f2 76 3e 96 9f ee 3e 39 e9 45 bf d4 29 e5 bd
       0.24116112 0.4660613 -0.77308995 -0.11189619
0001e0 1f 45 0c bf d2 73 b7 3b b4 60 28 bf c5 c7 10 bf
       -0.5479297 0.0055985237 -0.6577256 -0.56554824
0001f0 01 8e 01 3f a2 92 9f be b4 3d e0 bd 38 0e c7 3e
       0.50607306 -0.3116656 -0.10949269 0.38878036
000200 1e bf 0a bf 07 83 2b 3f 1d fc a9 be 95 9a 31 3f
       -0.5419787 0.66996807 -0.3320016 0.693765
000210 36 a4 0c be d7 e3 71 3e bd d8 ee 3e c9 17 9e bb
       -0.13734517 0.2362207 0.46649733 -0.0048246128
000220 d5 c2 bc be 40 70 d2 bd 6d b5 d2 bd 45 95 84 be
       -0.36867395 -0.10275316 -0.102885105 -0.25895134
000230 ed 5b 0f 3f a0 36 a1 be 0d 74 24 be e2 e3 da bd
       0.5599964 -0.31486988 -0.16059895 -0.106879964
000240 bc 7c a2 3d ca 8b c2 3e 8c c7 4c 3c 2a 93 a5 3e
       0.079339474 0.37997276 0.012498748 0.3233884
000250 65 93 1c 3e 05 28 cb bd 40 87 62 be 47 ab d2 be
       0.15290602 -0.099197425 -0.22121906 -0.411463
000260 ed b0 46 bd 8c 6a c6 3e 16 0e 38 3f df 3d 80 3e
       -0.048508573 0.38753164 0.71896493 0.25047204
000270 9c ef 0b bf d7 1e dc be 83 b1 ed bd 59 5e 7c be
       -0.5466249 -0.4299228 -0.11606123 -0.24645366
000280 16 f3 0f 3f 88 1f 6b 3d 12 5a be be 4c 08 4b be
       0.56230295 0.057403117 -0.37178093 -0.19827384
000290 0a 85 e4 bd b6 99 39 be 12 a2 1a bf 1a a9 10 bf
       -0.11158188 -0.18125042 -0.6040355 -0.5650803
0002a0 e8 04 a2 3c f6 dd 48 3f d0 90 3e 3e 53 2a 2b 3b
       0.01977773 0.78463686 0.18609929 0.0026117756
0002b0 9f 68 79 be 38 ba d7 bd e1 94 6a 3d 8a 45 0e 3f
       -0.24356316 -0.10533565 0.05727089 0.5557486
0002c0 b7 a4 fd 3d 3b bd 61 3e e5 9d 6e 3e 6b 7b 7a 3e
       0.123849325 0.22044842 0.2330242 0.24461143
0002d0 f6 38 0a 3d 2c fb 08 3e 07 66 d0 be 26 d8 c9 be
       0.03374573 0.13377064 -0.4070284 -0.3942272
0002e0 65 dc 27 3e 44 16 61 3e 22 a0 d4 be 45 92 94 be
       0.16392668 0.2198115 -0.41528422 -0.29017845
0002f0 85 0f da 3e 70 06 91 be 26 f5 1f 3f 60 e2 50 3d
       0.42589965 -0.28325224 0.6248344 0.050997138
000300 b7 52 01 3f d4 46 19 3f 77 26 c4 be 38 aa 87 3e
       0.5051684 0.598737 -0.38310596 0.26497054
000310 0d 83 b0 be 20 a8 27 3f 40 75 ce bd 85 11 c4 be
       -0.34474984 0.65490913 -0.100809574 -0.38294616
000320 8c 09 83 3e 03 ba 02 bc ee 0c 11 bf e6 fd e4 be
       0.2559322 -0.007978919 -0.56660354 -0.4472496
000330 61 8e 96 3a e7 49 45 3f db 25 d3 be 27 7e 63 3e
       0.0011486524 0.7706589 -0.4123982 0.22216092
000340 12 04 80 3e 74 c6 6a be c0 fd 6b be f6 30 ae be
       0.25003105 -0.22927266 -0.23046017 -0.3402173
000350 fc 18 27 3e 12 59 81 be ca eb 03 3f 89 82 f5 be
       0.16318125 -0.25263268 0.5153166 -0.47951153
000360 a6 d8 f9 3e db 6f d1 bd ac c5 4c be 5b c3 62 bc
       0.48798102 -0.10226413 -0.19997281 -0.013840522
000370 d3 10 3d 3e 63 2c 0a bf 05 cd 0d 3e 17 3f 27 be
       0.18463449 -0.5397398 0.1384774 -0.1633266
000380 72 68 29 bf 24 a7 9a bd 37 18 e0 bc 22 40 59 3d
       -0.66174996 -0.07551411 -0.027355297 0.053039677
000390 83 30 8b be c8 a2 b4 3e 84 2c 46 bd 8a 8f ac bd
       -0.2718545 0.35280442 -0.048382297 -0.084258154
0003a0 31 c1 de be 50 9a 7d 3e d4 32 18 3f 58 d1 1d bf
       -0.43506768 0.24765897 0.5945256 -0.6164756
0003b0 40 40 41 3f 47 38 07 bf 44 94 3d be 3b 95 0d 3d
       0.7548866 -0.5282025 -0.1851359 0.034566145
0003c0 74 b4 0a 3e 50 37 cf bc 06 c8 85 3e e8 55 0d 3f
       0.135454 -0.02529493 0.26129168 0.5520921
0003d0 64 4f 7a be 44 33 ee bd ec f2 cf be 9c ec 2e 3f
       -0.24444348 -0.11630872 -0.40615022 0.6832979
0003e0 13 e8 e3 3e 6e 3c 9b 3e 88 11 ab 3e c4 25 ee be
       0.44512996 0.30319542 0.33411813 -0.46513188
0003f0 a9 7e fc 3d be ce 95 be 84 5d 9c 3e 07 ad aa 3e
       0.12328846 -0.29259294 0.30540097 0.33335134

fc1.bias f4 [128]
000000 cd c6 80 3c 48 bc 30 3e de 8e 00 be 9b d4 d7 3d
       0.015719796 0.17259324 -0.125545 0.10538598
000010 3c e7 ba 3e dd bc 79 3e 8a a0 da be ea 1f 7e bd
       0.36504543 0.24388452 -0.42700607 -0.062042154
000020 24 fb 36 3d e8 08 a8 3e 4b 99 d0 bd e5 db 0d 3d
       0.0446731 0.32819295 -0.10185488 0.034633536
000030 bc eb 50 3e 1e f3 87 3e 3e d4 bd bc 0a 38 34 be
       0.20402426 0.2655267 -0.023172494 -0.17599502
000040 37 5f ab 3d 49 54 6e 3d dc 6a 44 bd 2f f7 d6 3e
       0.0836777 0.05818585 -0.04795347 0.4198546
000050 1e a8 1c be 45 fc 17 be e2 d1 a9 3c 94 3d bd bb
       -0.15298507 -0.14842327 0.020729963 -0.005775163
000060 81 3e 51 3e 72 b8 af bc c8 1a 0c bc d1 86 46 3d
       0.20434 -0.021450255 -0.008551307 0.048468415
000070 72 df f5 3d e8 5e 1e be 98 38 86 be 0d 85 17 be
       0.120055094 -0.15465891 -0.26215053 -0.14796849
000080 2c f2 16 be f6 fd aa 3d 0d 06 3e bd 19 5d 2d be
       -0.14740819 0.083492205 -0.04639249 -0.16930045
000090 1d 10 18 3e c7 f4 01 be 24 1e c1 3d 32 52 2c 3e
       0.14849897 -0.12691031 0.09429577 0.1682823
0000a0 35 bb 15 3d fd c6 78 bc 73 61 bd bb 79 1e 75 be
       0.036555488 -0.015184161 -0.005779439 -0.23937406
0000b0 2a d6 fe 3d 25 6a c7 3e 00 66 b6 bd 8d 28 f1 bc
       0.12443192 0.3894817 -0.08906174 -0.029438281
0000c0 4d 6c b2 3e f1 11 24 3e 9d f9 7f be 6f e5 89 3d
       0.34848252 0.16022469 -0.24997564 0.06733214
0000d0 69 dc 0b 3e e7 74 bc 3e 23 9c a1 3d 77 86 5b bd
       0.13658299 0.3680794 0.07891109 -0.053595033
0000e0 de 50 58 3e 9c bf 17 3e ee 89 92 bd e4 68 e3 3d
       0.21124598 0.14819187 -0.07155214 0.11103991
0000f0 ce 28 3c 3e 17 36 c6 3d d4 78 90 be 8f bc 90 3d
       0.18374941 0.096782856 -0.28217185 0.07067215
000100 70 fc ef bd 90 ce 2a 3e 5b 92 c0 bd 36 9d 0c 3d
       -0.117180705 0.1668036 -0.09402915 0.034329616
000110 ef e9 b1 be 2c 17 c6 3c c3 eb 20 be 0f d6 59 be
       -0.3474879 0.024180971 -0.15714936 -0.21273063
000120 f2 74 c1 3e e9 da 46 be 15 70 b8 3b 37 a1 86 3e
       0.37784535 -0.19419445 0.0056285956 0.26294872
000130 22 95 cf 3e cf bb 6f bd 8f 1f 5a bd 39 27 a0 be
       0.40543467 -0.058528718 -0.053252753 -0.31279925
000140 cb 16 ca bd 27 3e 6f 3d da fb 94 be 51 8d 84 bd
       -0.09867629 0.058408882 -0.29098397 -0.064722665
000150 40 25 ba bc 89 f1 21 3e 94 73 e9 3d 03 de c1 3d
       -0.02272284 0.15814795 0.11398998 0.094661735
000160 b3 39 6f be 96 06 3a bd a9 c1 9f 3e d3 42 c6 3c
       -0.23361854 -0.045416437 0.31202438 0.024201786
000170 d4 ae 51 3e 0c e4 6a 3c 6e 76 b0 3c 4b 22 b1 3e
       0.20476848 0.014336597 0.021540847 0.34596476
000180 b5 f6 a0 3d f1 6f 00 be 95 5e 67 be 0f a7 d1 bd
       0.07859556 -0.12542702 -0.22594674 -0.10236942
000190 30 a8 78 3c 3b cb 4d 3e 39 8e 18 3b 69 30 96 bc
       0.015176818 0.20097058 0.002327813 -0.01833363
0001a0 04 77 9d be de 74 0e 3c 4d d1 30 be f3 c0 b5 be
       -0.30754864 0.0086948555 -0.17267342 -0.3549877
0001b0 43 0f b9 bd 71 15 a1 be 71 da 81 3d ee a5 a2 bd
       -0.09036114 -0.3146167 0.063404925 -0.07941805
0001c0 3f 9e b7 3d d8 9a 3e bd df 45 84 bd 8f 4f 0a 3f
       0.0896573 -0.04653439 -0.06458639 0.54027647
0001d0 93 c3 44 3e 2e 29 7d 3e f5 48 0c be 91 57 d7 3d
       0.1921523 0.2472274 -0.13699706 0.10514749
0001e0 7a 95 5a bd 2f 5c 54 be 15 67 a8 bd bf d3 a1 3e
       -0.05336521 -0.2073829 -0.08222786 0.31606862
0001f0 51 1e 85 3e 20 08 d4 3b 76 dd b4 bb f0 de 42 be
       0.25999692 0.006470695 -0.0055195643 -0.19030356

fc2.weight f4 [151, 128]
000000 3c 24 e4 38 63 87 1b be 86 78 c5 3e 29 aa 82 bd
       0.000108786364 -0.15188365 0.38568515 -0.06380112
000010 ee c6 0a bf 2e 18 5c 3e 72 bd 1a 3d 25 e7 bc 3e
       -0.5420979 0.21493599 0.037778325 0.368951
000020 0e 2f 85 be 06 8b 23 bf 63 ed cc be 40 a2 29 3f
       -0.26012462 -0.6388401 -0.40024862 0.662632
000030 b3 a1 6f 3d b7 9a 2f bf 14 95 4d 3e 20 7e 2b 3e
       0.058503818 -0.6859545 0.200764 0.16747332
000040 a8 e5 8c 3e c9 0f f0 be ab ae c2 3e fb bd 90 be
       0.27518964 -0.46887043 0.38023886 -0.28269944
000050 f5 ce 11 3e 64 0e 6b 3d 11 63 07 bf e1 cc 47 3e
       0.14239104 0.05738677 -0.5288554 0.19511749
000060 3a f3 a0 3c 38 0c 6d be e1 40 b9 be ba e2 42 bc
       0.01964723 -0.23149192 -0.3618231 -0.011894876
000070 08 62 69 be a1 c6 bd 3d 1f 89 94 3d 01 63 9c 3e
       -0.22791302 0.09266401 0.07252716 0.30544284
000080 68 d7 69 3e cb 7b d9 be e2 9d a8 3d b1 37 a0 be
       0.22836077 -0.4247726 0.08233239 -0.3129249
000090 25 eb af be e8 03 23 be 83 d1 0b 3f 22 d8 b9 be
       -0.3435909 -0.15919459 0.54616565 -0.3629771
0000a0 ac 11 d4 3d e5 b3 36 3e fe 57 6d bd b9 31 be be
       0.10354933 0.17842062 -0.057945244 -0.3714731
0000b0 3a 8c bc 3e 4c a9 5e be 70 d4 da be fc 0e d0 be
       0.36825734 -0.21744269 -0.42740202 -0.40636432
0000c0 89 26 1c 3f 57 11 99 3c 67 95 27 bf 59 11 50 be
       0.609963 0.018685026 -0.65462345 -0.20319118
0000d0 24 f7 b3 be 71 ad 9e 3d a9 0d 89 be 78 fb 8b bd
       -0.3514949 0.07747925 -0.26768234 -0.06835073
0000e0 d0 de 07 bf b8 a8 a5 bd 33 59 63 3e bc de d2 be
       -0.5307436 -0.08088821 0.22201996 -0.41185558
0000f0 77 ae 24 be 4f 37 29 3e fd 56 32 3e cb a8 54 3c
       -0.16082178 0.16525005 0.17415996 0.0129796965
000100 76 fa 15 be e3 2c b7 be cc 21 df 3c ee ce e2 be
       -0.14646325 -0.35776433 0.027237795 -0.442985
000110 9c d7 2d be 8d 32 57 3e 96 3d 42 be 2e 27 d1 be
       -0.1697678 0.21015377 -0.18968806 -0.40850204
000120 1d 07 18 3f a4 88 4c 3e 51 fe 72 3e 9e 55 d0 be
       0.59385854 0.19974 0.23729827 -0.4069032
000130 2a 70 60 3c 2c 3b 8c 3e 09 80 8b be 3c d1 9a be
       0.013698617 0.27388895 -0.2724612 -0.30237758
000140 02 88 c6 be f0 30 33 be c1 d6 cb 3e 48 86 a6 be
       -0.3877564 -0.17499137 0.39812282 -0.32524323
000150 99 bb 59 3f 0a 6e e8 3e 88 0e d2 3d 13 39 f5 3e
       0.85051876 0.45396453 0.10256678 0.47895107
000160 35 89 a5 3e 9a ae c7 3c 91 13 85 be f5 b4 d2 be
       0.32331243 0.024375249 -0.2599149 -0.41153684
000170 10 47 91 be a1 0d 13 3f 7b 6b 64 3e 8f 07 7a be
       -0.2837453 0.5744267 0.22306626 -0.24416946
000180 85 b4 34 be 4b 30 9c be e9 d6 bb 3e a2 bd 96 be
       -0.17646988 -0.30505595 0.366874 -0.29441553
000190 8e 88 d8 be 4b 40 44 3d 4e 9f 0e bd eb ec f1 bd
       -0.42291683 0.047912877 -0.034819894 -0.11812767
0001a0 7e 9f 55 be f2 15 08 3d 77 f5 2e 3f 07 c7 15 3f
       -0.20861623 0.033224054 0.683433 0.58506817
0001b0 5f d3 5c 3e 47 eb 4a be 4c 57 3f 3e 48 f8 35 be
       0.21565007 -0.19816314 0.18685645 -0.17770493
0001c0 92 67 c5 be 10 50 c4 3e c0 8d ef be 80 af a3 3d
       -0.3855558 0.38342333 -0.46787834 0.07992458
0001d0 59 84 8c 3e 41 4e c5 3d 95 de 39 be 61 f4 97 be
       0.27444723 0.096340664 -0.18151315 -0.29678634
0001e0 d3 22 34 3e 27 04 b8 bd 2b 45 af 3e c0 a7 b3 3e
       0.1759141 -0.08985167 0.34232458 0.3508892
0001f0 a4 44 e1 3e b5 05 0b bf f9 ca 3b be 48 ab e0 be
       0.4399768 -0.54305583 -0.18339147 -0.43880677
000200 1f 1b 51 3e 77 fd e2 bd f9 b9 aa 3d 77 c3 96 3e
       0.20420502 -0.11083501 0.08336253 0.29446003
000210 5e f8 16 3e 18 b5 2b 3f d5 89 8e be 6a a5 18 bd
       0.14743182 0.670732 -0.27839532 -0.037267126
000220 91 74 97 be ed c6 7b be 2d 4a a9 3e 33 9e ab be
       -0.2958112 -0.24587603 0.33064404 -0.33519134
000230 58 92 dd be ba 19 8d be 56 ad 42 3e 49 32 b2 be
       -0.43275714 -0.2755869 0.19011435 -0.3480399
000240 ac c6 68 be 1b 67 5a 3e dd 41 cf be cc b9 e6 3e
       -0.22732037 0.21328394 -0.40479937 0.45063627
000250 99 a7 85 be ad 97 82 be fa da 81 be 0f b4 10 3f
       -0.2610443 -0.25506344 -0.25362378 0.5652475
000260 2d 41 17 3d 0f 6a 94 be 5f b0 85 3d 93 c4 f0 3e
       0.03692739 -0.28987166 0.06527781 0.47024974
000270 9e 66 bb 3d ef 67 56 3d 87 01 63 be b5 f0 e5 3d
       0.09150432 0.052345213 -0.22168551 0.11227552
000280 4a f5 82 be 2d eb 81 be 81 24 4c 3e f8 02 ff be
       -0.25577766 -0.25374737 0.199358 -0.49806952
000290 0d e3 e0 be 84 b3 8e be de 9a 5d bd 1b be 03 3f
       -0.43923226 -0.27871335 -0.05410277 0.5146195
0002a0 83 d6 ac be c8 41 81 be 09 ba 93 be 87 2d 8c bc
       -0.3375741 -0.252455 -0.2885287 -0.017111553
0002b0 81 19 df be 06 f5 2e be f8 9e 82 be f9 e2 46 3e
       -0.43574145 -0.17085657 -0.2551191 0.1942252
0002c0 5d 8f 34 3e e6 48 ba be 8e aa 8b 3e 6d 40 b4 3e
       0.17632814 -0.36383742 0.2727856 0.35205403
0002d0 d6 b0 ca 3e 79 35 d0 be 2c 4b 51 be 9f 46 43 3f
       0.3958804 -0.40665796 -0.20438832 0.76279634
0002e0 d0 80 ea bc f9 31 16 3f 8b 21 3e 3e 56 a1 be be
       -0.028625876 0.5867 0.18567483 -0.37232465
0002f0 86 30 d2 be be 93 1f 3e cd 3e fb 3e ea cc 92 be
       -0.41052645 0.15583703 0.4907135 -0.28671962
000300 c5 f5 6f 3e aa 25 1e 3a 6e a5 e5 bd be 39 b8 3d
       0.23433597 0.0006032834 -0.11213194 0.089953884
000310 07 df 12 3e a9 13 ba 3d 60 9c aa be 09 bc ca be
       0.1434289 0.09085781 -0.3332243 -0.39596584
000320 b2 31 34 3d c4 41 01 3f 79 3e df be fd ea 2a 3e
       0.043992706 0.50490975 -0.4360235 0.16691203
000330 be c7 d5 be f3 94 c0 3e 93 04 86 3e 2a 13 0b bf
       -0.41753954 0.3761364 0.26175365 -0.5432612
000340 6c 90 cc be e0 f0 be be 4b 74 11 bd ab 85 0b bd
       -0.39953935 -0.37293148 -0.035511296 -0.034063023
000350 48 44 c5 bc 9d 71 e7 bd b6 7c f8 be bd c8 5f be
       -0.02408041 -0.11300967 -0.48532647 -0.2185392
000360 b4 f1 be be 19 e0 65 3e c2 3d f9 bd 50 1b 84 3e
       -0.3729378 0.22448768 -0.121699825 0.25802088
000370 90 f3 c6 be 7d 32 8f be 52 59 3e 3e fc 6e 3c 3d
       -0.38857698 -0.27968207 0.1858876 0.04600428
000380 a5 36 00 bf fb cb f8 bd bd 28 9c be ab ed 68 be
       -0.5008338 -0.12148281 -0.3049983 -0.22746913
000390 28 65 9e 3e 14 31 89 3e 9e b3 6f 3e 5b f6 ad 3e
       0.3093655 0.26795256 0.23408362 0.33977017
0003a0 c4 dd 20 bf e0 7b cd be d0 f2 d6 be be 38 c7 bd
       -0.6283839 -0.40133572 -0.41982126 -0.097276196
0003b0 25 d8 76 bd ca a7 e2 bd cc 02 a0 be 28 dc d3 3e
       -0.060264725 -0.110671595 -0.31252134 0.41378903
0003c0 c4 62 09 3f ae be a1 3e 72 38 b3 be 76 5d e7 ba
       0.5366633 0.3159079 -0.35004002 -0.0017651755
0003d0 4c d8 20 3e 6a 39 a3 bb fc eb 8b be a8 f6 5d be
       0.1570751 -0.0049812095 -0.2732848 -0.21676123
0003e0 86 6c 28 bf 5a d2 01 bf 3e 8f 02 bf 0a ed 5e 3e
       -0.65790594 -0.50711596 -0.5099982 0.2177011
0003f0 20 41 e1 bd 03 4e 7f be b2 c4 ee 3e 57 69 01 bf
       -0.1099875 -0.24932103 0.46634442 -0.5055136

fc2.bias f4 [151]
000000 2e ff a7 bd 36 21 63 bc 8e 0e 42 3d b8 94 96 be
       -0.082029685 -0.013862899 0.04737716 -0.29410338
000010 2d 1c 8b 3e 10 86 44 be 15 1e 0a bd 06 e5 6c 3d
       0.27169934 -0.19191766 -0.033720095 0.0578356
000020 44 54 92 be 18 c9 9d bd b5 6b 09 3c e4 26 9e bd
       -0.28579915 -0.07704371 0.008387496 -0.077222615
000030 c0 37 44 3e 63 a1 88 be eb c9 07 3e c6 b5 e9 3d
       0.19161892 -0.26685628 0.1326062 0.11411624
000040 e1 f9 16 3e 9f 6c 30 3d 22 20 5a bc dc 19 00 3d
       0.14743759 0.04307234 -0.013313325 0.03127466
000050 72 72 79 3d e7 f2 57 bd 21 37 91 bd d9 3c d8 bd
       0.06090016 -0.052721884 -0.07090593 -0.10558481
000060 ad ec 87 3d aa a0 d4 3d 49 b3 b0 bc aa 44 01 3e
       0.06636939 0.10382207 -0.021569865 0.1262385
000070 9a db d5 3d cc 39 20 3e b1 30 80 3d 60 9b 68 3e
       0.10442276 0.15647048 0.06259287 0.22715521
000080 73 06 0f be ba e7 8e 3e 99 8f 7a bc 0c 90 68 3d
       -0.13967304 0.27911168 -0.015293025 0.056778
000090 5b bb 3a 3e 28 de 90 bc 65 f1 94 3d 40 5b e9 3d
       0.18235533 -0.017684057 0.07272605 0.11394358
0000a0 3d 0d 4e be e6 5d 3b bd 39 e3 34 be 57 db fa 3d
       -0.20122238 -0.045743845 -0.17664804 0.12248867
0000b0 91 02 3b bd a7 86 cb 3e a1 49 50 be bf 36 34 3c
       -0.045656744 0.3975117 -0.20340587 0.010999381
0000c0 93 b0 d3 bd 6c df e8 3d f3 27 26 bc 9e cf ed bd
       -0.10336413 0.11370739 -0.010141361 -0.116118655
0000d0 31 8e ee 3d 6b 7c bb 3d 13 e1 d6 3d 6d 5d 7a 3d
       0.116482146 0.0915459 0.10492148 0.061124254
0000e0 a8 27 30 bd f5 39 a0 be c0 16 af 3d bc 5b ca bd
       -0.04300657 -0.31294218 0.08549261 -0.09880778
0000f0 a2 1b 28 be 31 50 26 be c6 62 63 3d 71 a6 7d be
       -0.16416791 -0.16241528 0.05551412 -0.24770524
000100 2b 65 ae 3d 69 b7 97 3d 93 27 31 3d 48 1e 78 be
       0.0851539 0.074080296 0.04325063 -0.24230301
000110 99 68 86 3d 26 d4 67 be cd 1a b7 be ff d5 c2 3d
       0.06562919 -0.22639522 -0.35762635 0.09513473
000120 f5 a9 ac 3d 05 b7 b0 3d 65 31 cb 3e c5 e1 25 3d
       0.08430854 0.08628658 0.39686123 0.040498514
000130 33 94 8f bd a1 0d ac bc 52 d0 08 bd a2 1e 4e be
       -0.07010689 -0.021002593 -0.033401795 -0.20128873
000140 0d 2a 49 bc d5 37 9c bc fe b0 c0 bd 20 8a 69 3c
       -0.012278092 -0.019069592 -0.094087586 0.014254123
000150 40 c4 5b bd 8e 4a 93 bd e1 de 8c bc 8f 00 ba 3f
       -0.053653955 -0.071919546 -0.01719612 1.453142
000160 94 54 3e bd 1c fd 57 3d bd 06 4e be 08 e3 53 3d
       -0.04646738 0.05273162 -0.20119758 0.051730186
000170 08 c4 2d be a3 37 6d 3e 85 bc 28 3e 63 c5 82 be
       -0.16969311 0.23165755 0.16478164 -0.2554122
000180 06 3b 3c bd 88 4f da 3d 1b e8 4d bd 20 e8 99 bd
       -0.045954727 0.10659701 -0.05027018 -0.075149775
000190 63 17 0b 3e 9e f0 5b 3e 46 03 1c 3e b9 84 fc 3d
       0.1358314 0.21478507 0.15235624 0.12330002
0001a0 e6 25 00 3e f9 d2 31 be 64 26 d3 3b 11 0c 63 3c
       0.12514457 -0.17365636 0.0064437855 0.013857857
0001b0 f2 af 92 be d9 c4 10 3c 15 0c d7 3d 0e 38 1e 3e
       -0.2864986 0.008835995 0.10500351 0.1545107
0001c0 ac 22 df bd 16 54 ea bd 40 fd a5 bc db 45 b1 3d
       -0.10895285 -0.11441819 -0.02026236 0.08655902
0001d0 95 80 0f bd cc 0c 4d 3e 18 11 ea bd 54 f8 86 3d
       -0.035034735 0.20024413 -0.114290416 0.065903336
0001e0 c3 98 0c be f0 0d 8e 3e 5f c6 1f 3d ae 7e 1f bd
       -0.13730149 0.27745008 0.03900754 -0.03893917
0001f0 58 11 d5 bd ed cc fe 3b bb 93 c7 bd fc 97 c4 3d
       -0.10403699 0.007775894 -0.09744974 0.09599301
000200 b9 69 8a bd f2 e2 9f 3d 4c 99 54 be 4c 00 ab bd
       -0.06758446 0.07806958 -0.20761603 -0.08349666
000210 97 fc 73 3d 1c ad 95 be 15 dc 44 bd 26 52 07 3c
       0.05956706 -0.29233634 -0.04806145 0.008259332
000220 78 e8 0c 3e 3a 7f 6e 3d a5 6b 90 ba e6 87 36 be
       0.13760555 0.0582268 -0.0011018409 -0.17825279
000230 df 30 d0 3c 7a 55 3f be 33 e2 b5 3d 6c ef a5 bd
       0.025413929 -0.1868495 0.08881035 -0.08102307
000240 e8 10 f6 3b 1b 58 ad bc d6 2d a1 be 69 17 6c 3d
       0.0075093396 -0.021160176 -0.31480283 0.057639513
000250 cd 43 23 be 41 32 6a b7 f0 bc bd be
       -0.15943833 -1.39591875e-05 -0.3705821
